Class_model_CNN2_15.tflite (tflite, 88644 bytes, 10 tensors)

sequential_4/conv1d_12/BiasAdd/ReadVariableOp f4 [32]
0.014978854 -0.031545438 -0.045768347 0.0 0.104868844 -0.033706833 -0.07638354 -0.2875217
-0.06722022 0.04492453 -0.03956881 0.25047517 -0.30472323 0.042845502 -0.036380116 0.0
0.29763743 0.10803544 -0.0001921573 -0.1052076 -0.037758566 0.0 0.014271716 -0.009330607
0.0 -0.04215144 0.0 0.20752905 0.122170016 0.008741719 0.046476837 0.034872923
00000000: de69 753c ca35 01bd 9777 3bbd 0000 0000
00000010: 7ac5 d63d 2d10 0abd f96e 9cbd 0b36 93be
00000020: c1aa 89bd c902 383d e812 22bd 483e 803e
00000030: af04 9cbe c47e 2f3d 5103 15bd 0000 0000
00000040: ef63 983e af41 dd3d d57d 49b9 1577 d7bd
00000050: baa8 1abd 0000 0000 ead3 693c 67df 18bc
00000060: 0000 0000 fda6 2cbd 0000 0000 7f82 543e
00000070: 4634 fa3d 6d39 0f3c 7f5e 3e3d e9d6 0e3d

sequential_4/conv1d_13/BiasAdd/ReadVariableOp f4 [64]
-0.12415468 0.32025567 0.042979673 -0.02154596 -0.11984349 0.030637037 0.07270906 0.18021601
0.072546974 -0.16823559 -0.28029463 0.041816402 0.53225666 -0.45027605 0.07436451 0.3251962
0.09608764 0.123678386 -0.20918758 -0.05144664 -0.25169915 0.09271213 -0.1407657 -0.6247006
-0.04258878 -0.20118292 -0.34988552 -0.12209121 0.051995028 0.00094207714 -0.2835182 -0.055244595
0.05591586 0.04276243 -0.024849027 0.09075865 0.08869615 -0.0859546 0.075098336 -0.01587982
0.100311 0.22420281 -0.12682883 0.08133853 -0.018048178 -0.090031765 0.085849024 -0.011282498
-0.3934126 -0.012764118 -0.12649187 0.09031446 -0.0067414837 0.12065372 -0.2592517 0.28017372
-0.027426576 -0.030904802 0.058557425 -0.10916203 0.066432975 -0.0128599955 0.06151567 0.16559021
00000000: cf44 febd 8df8 a33e 740b 303d 2781 b0bc
00000010: 8170 f5bd 86fa fa3c 7de8 943d 8c8a 383e
00000020: 8293 943d f345 2cbe c782 8fbe ad47 2b3d
00000030: f941 083f 958a e6be 6c4c 983d 1e80 a63e
00000040: 99c9 c43d 184b fd3d 4535 56be b6b9 52bd
00000050: b6de 80be dbdf bd3d e224 10be 61ec 1fbf
00000060: 9371 2ebd e502 4ebe 3224 b3be f50a fabd
00000070: bdf8 543d baf5 763a 4c29 91be 2848 62bd
00000080: 0708 653d a827 2f3d 3090 cbbc acdf b93d
00000090: 54a6 b53d f708 b0bd 28cd 993d 6516 82bc
000000a0: db6f cd3d 6c95 653e 6bdf 01be d194 a63d
000000b0: c6d9 93bc 9362 b8bd 9dd1 af3d 3ada 38bc
000000c0: 606d c9be 9720 51bc 1687 01be caf6 b83d
000000d0: aae7 dcbb 4c19 f73d a4bc 84be ee72 8f3e
000000e0: b3ad e0bc 112c fdbc e9d9 6f3d 5890 dfbd
000000f0: 030e 883d bbb2 52bc dbf7 7b3d 7b90 293e

sequential_4/conv1d_14/BiasAdd/ReadVariableOp f4 [64]
-0.018072208 -0.035418473 -0.16334006 -0.03314455 -0.24427694 -0.03591593 -0.30136126 -0.015767673
-0.41317752 -0.015283702 -0.04703543 -0.012761942 -0.10894497 -0.026601126 -0.23259377 -0.0051069637
0.32220465 0.06258385 -0.044443026 -0.21257778 -0.2825555 0.22064832 -0.0536932 -0.022535635
-0.29568106 0.0031092756 -0.035905976 -0.28526112 -0.052500237 -0.004317834 -0.07991363 0.21215715
-0.04012029 -0.03508309 0.23738308 0.46373096 -0.08175237 0.084391 -0.0506225 -0.056802846
0.18784745 -0.017244361 -0.00649798 -0.26714844 -0.011525415 0.07896202 -0.013426299 -0.011570134
0.26361254 -0.018574143 0.61304396 -0.017786635 -0.1839679 -0.041198798 -0.031163722 -0.08806939
0.10323578 0.0076401513 -0.09330063 0.3101464 -0.3068002 -0.23328312 -0.0409361 -0.025387313
00000000: 2b0c 94bc f612 11bd 9e42 27be 94c2 07bd
00000010: bc23 7abe 951c 13bd 064c 9abe 352b 81bc
00000020: 018c d3be 7e68 7abc 39a8 40bd 7717 51bc
00000030: 8a1e dfbd 9bea d9bc 102d 6ebe 5158 a7bb
00000040: 02f8 a43e f62b 803d e409 36bd fdad 59be
00000050: 1dab 90be a2f1 613e 67ed 5bbd a79c b8bc
00000060: 8263 97be fdc4 4b3b 2512 13bd bf0d 92be
00000070: 7d0a 57bd 9e7c 8dbb c2a9 a3bd b93f 593e
00000080: 2c55 24bd 49b3 0fbd 8d14 733e 256e ed3e
00000090: c96d a7bd 30d5 ac3d 8a59 4fbd 1aaa 68bd
000000a0: 155b 403e 0c44 8dbc 02ed d4bb aec7 88be
000000b0: 18d5 3cbc d7b6 a13d fbf9 5bbc a990 3dbc
000000c0: 39f8 863e cd28 98bc 73f0 1c3f 47b5 91bc
000000d0: 1562 3cbe 12c0 28bd 104b ffbc b95d b4bd
000000e0: 486d d33d 3c5a fa3b 6714 bfbd 82cb 9e3e
000000f0: ea14 9dbe c5e1 6ebe 9dac 27bd 0ef9 cfbc

sequential_4/conv1d_12/Conv1D f4 [32, 1, 3, 1]
-0.617406 -0.0023547385 0.52867144 0.23508917 0.06976372 0.005804941 0.7030205 -0.025019113
-0.7450273 -0.032227263 -0.028105617 -0.10467535 -0.08849586 -0.39884824 0.33299935 0.2325692
0.32097495 -0.43616417 0.44184703 0.42217857 -0.17270286 0.14022548 0.2914393 0.17294706
0.1646073 -0.44600272 0.5613284 0.20921937 -0.5698583 0.25850084 0.17378293 -0.007948168
0.21629739 -0.30564916 -0.5947923 -0.14973247 0.39690688 0.111872695 -0.0097033065 0.22141032
-0.5621203 0.24610524 -0.037589766 0.13499759 0.18857 -0.2333922 0.010781318 -0.10228367
-0.36916602 -0.15763664 -0.5512994 -0.78966635 0.23317833 0.33117878 0.72558606 -0.0754924
-0.4320957 0.812947 -0.84709656 0.5480155 0.18849304 0.0431872 0.16802996 -0.21686162
-0.093226746 -0.14501926 -0.64531523 -0.0019423554 0.55321515 -0.39812267 0.04540935 0.47199064
-0.12250918 -0.21736869 -0.13850504 0.3677774 0.37018788 0.2620685 -0.014042452 -0.08076757
-0.10857867 -0.38282773 0.36628914 -0.40490395 0.13597296 0.30610445 -0.5924347 0.074773446
0.7539967 -0.65850675 0.68886805 -0.40442902 -0.5615851 0.14998315 -0.5919489 0.36277524
00000000: 520e 1ebf f551 1abb 0357 073f 37bb 703e
00000010: 48e0 8e3d 6037 be3b 27f9 333f e2f4 ccbc
00000020: 1cba 3ebf bc00 04bd c03d e6bc 0860 d6bd
00000030: 513d b5bd d635 ccbe e47e aa3e 9f26 6e3e
00000040: d456 a43e e950 dfbe c639 e23e ca27 d83e
00000050: 05d9 30be 4597 0f3e 8837 953e 0919 313e
00000060: d18e 283e 785a e4be 38b3 0f3f 9a3d 563e
00000070: 3ce2 11bf 395a 843e 27f4 313e 0839 02bc
00000080: 107d 5d3e 0c7e 9cbe 4f44 18bf 7853 19be
00000090: 6137 cb3e 831d e53d 9efa 1ebc 63b9 623e
000000a0: 1ee7 0fbf 0303 7c3e baf7 19bd cf3c 0a3e
000000b0: 7e18 413e 5dfe 6ebe 20a4 303c 1a7a d1bd
000000c0: 5403 bdbe 806b 21be f521 0dbf 9327 4abf
000000d0: 4dc6 6e3e 4490 a93e 02c0 393f c29b 9abd
000000e0: a63b ddbe 4b1d 503f 52db 58bf be4a 0c3f
000000f0: 5204 413e 10e5 303d 0c10 2c3e f910 5ebe
00000100: aaed bebd ee7f 14be 6133 25bf a296 feba
00000110: 829f 0d3f bcd6 cbbe 28ff 393d c2a8 f13e
00000120: 18e6 fabd e695 5ebe 44d4 0dbe 524d bc3e
00000130: 4489 bd3e d82d 863e 5012 66bc 7869 a5bd
00000140: 7e5e debd ff01 c4be 408a bb3e 924f cfbe
00000150: 7f3c 0b3e b9b9 9c3e cda9 17bf d222 993d
00000160: ed05 413f e693 28bf a859 303f 5211 cfbe
00000170: 0bc4 0fbf 2f95 193e f789 17bf adbd b93e

sequential_4/conv1d_13/Conv1D f4 [64, 1, 3, 32]
0.603099 -0.09443479 0.7240623 0.07122931 0.0077003324 0.16060933 -0.14992414 0.17686486
-0.27401656 -0.11608531 -0.119842134 0.10366132 -0.33378693 0.02526889 0.04241641 0.013954759
0.17434803 0.3461111 -0.18326622 -0.8467878 -0.12643717 0.112271935 0.65895003 0.18292159
-0.018999487 0.06917716 0.066929266 -0.040252052 0.06672991 0.30246475 1.0868096 -0.0015521538
-0.008292745 0.042328574 0.6227371 -0.008099899 0.02897662 0.1265678 0.3052683 0.18073426
0.28754646 0.18958378 0.009774473 0.05077503 0.8256862 0.08550832 0.024652718 -0.039059922
0.08924304 0.006182689 0.34123644 0.061103147 -0.11998539 0.092018604 -0.14398658 -0.25717953
-0.012303278 -0.012783046 -0.08309105 0.26177162 0.26378354 0.42150363 0.5962858 0.1564078
1.0651115 -0.1654255 0.29395154 -0.028781623 0.21222179 -0.1118641 -0.08372641 -0.23056416
-0.040978435 0.09631426 -0.08474589 0.013305688 -0.6580023 0.13146405 -0.119076006 0.033427656
0.33070675 0.14777417 -0.1597988 -0.1551097 -0.0070403647 -0.091630846 1.0170844 0.03978374
0.12769613 -0.14039472 -0.08976165 -0.07816624 -0.15865006 -0.42056516 0.8073641 0.267243
0.143194 0.18374923 1.3145336 0.075347036 -0.07408742 0.2551573 0.17822757 -0.4926569
-0.064718366 0.55112827 0.122281566 -0.79876 -0.16459437 0.2139246 0.033400364 -0.08700763
-0.5918864 -0.34520274 0.11412034 0.10778479 0.09513494 0.025348708 0.1834205 -0.18378694
-0.052800626 -0.0918026 -0.029941127 0.105454825 1.0932968 0.29213253 0.6581382 0.38564166
0.15981202 0.030354043 -0.02399829 -0.01830174 0.088867016 0.04616166 -0.059355114 -0.52504367
0.11503937 0.8548721 -0.020848116 -0.6053609 -0.259949 0.6749978 -0.047543056 -0.072985224
-0.7713228 -0.4423488 -0.0047791745 0.154211 -0.00029297278 -0.03793755 0.23359607 0.078292474
-0.04667323 0.049340624 0.121037126 -0.028141554 0.3361412 0.027515585 -0.12842111 0.59073406
0.7086437 -0.06932912 -0.3388643 -0.109322414 0.4530738 -0.13370089 -0.08661978 -0.4441548
0.14631441 1.3773149 0.07476074 -0.17710143 -0.14789705 1.0828749 -0.07125227 -0.01589474
-0.41616294 0.2843831 0.049336825 0.16001855 -0.052124362 0.124548346 0.70826185 0.10980698
-0.004954368 0.060918625 0.113551855 0.2080316 0.17036141 -0.013116434 -0.32633597 0.9326093
-0.5222999 0.28363314 0.29599416 -0.11759314 0.15765737 -0.086798 0.26933727 0.048033938
0.07875692 -0.16663289 0.009957535 -0.5742007 -0.16956395 -0.23867261 0.08122549 -0.005748272
-0.39182386 -0.08951983 0.24479759 0.2579075 0.25005797 0.12634623 -0.353854 0.11174342
0.091637865 0.2816989 -0.035353497 0.18178718 -0.081975274 -0.02841373 0.1284013 -0.3828149
-0.6193172 0.16605635 0.1483632 -0.103631265 -0.113818705 0.073715076 0.22313316 0.1674936
-0.20999242 0.36541715 0.07228733 -0.20314594 -0.34507117 0.4151965 -0.08147975 -0.00034192204
-0.2935488 -0.64515996 0.33457437 -0.2685019 0.048157983 -0.06778542 -0.7560704 -0.100922875
-0.12653117 0.16627528 0.030758396 0.14890735 0.21526386 0.37127253 -0.07609679 0.4826688
00000000: b264 1a3f 0767 c1bd 265c 393f ace0 913d
00000010: 1253 fc3b c676 243e b785 19be 101c 353e
00000020: e64b 8cbe 23be edbd cb6f f5bd 634c d43d
00000030: 1fe6 aabe b400 cf3c d4bc 2d3d 80a2 643c
00000040: 4a88 323e 7935 b13e 24aa 3bbe 16c7 58bf
00000050: bf78 01be d4ee e53d f3b0 283f cc4f 3b3e
00000060: d0a4 9bbc c1ac 8d3d 3612 893d 56df 24bd
00000070: b1a9 883d a9dc 9a3e 941c 8b3f a471 cbba
00000080: 4bde 07bc ba60 2d3d b36b 1f3f 70b5 04bc
00000090: 6060 ed3c fd9a 013e 204c 9c3e 6712 393e
000000a0: 4a39 933e 4022 423e 1c25 203c 7af9 4f3d
000000b0: 2c60 533f fc1e af3d 7ff4 c93c 4cfd 1fbd
000000c0: 0ec5 b63d 2898 ca3b 8bb6 ae3e 4b47 7a3d
000000d0: e6ba f5bd 4074 bc3d 3871 13be 09ad 83be
000000e0: b093 49bc fb6f 51bc a42b aabd ee06 863e
000000f0: a30e 873e 53cf d73e 30a6 183f 5e29 203e
00000100: 9355 883f 4d65 29be d180 963e 70c7 ebbc
00000110: ab50 593e 0119 e5bd c178 abbd 0319 6cbe
00000120: 01d9 27bd 6940 c53d 418f adbd 1a00 5a3c
00000130: d772 28bf 839e 063e 1fde f3bd 70eb 083d
00000140: 6552 a93e 1d52 173e 4ca2 23be 14d5 1ebe
00000150: dcb2 e6bb f4a8 bbbd d22f 823f 46f4 223d
00000160: c6c2 023e a2c3 0fbe f5d4 b7bd 9f15 a0bd
00000170: 2975 22be 5154 d7be 6aaf 4e3f 13d4 883e
00000180: 73a1 123e c228 3c3e a342 a83f 8c4f 9a3d
00000190: 25bb 97bd faa3 823e 4a81 363e 863d fcbe
000001a0: 108b 84bd be16 0d3f c26e fa3d 897b 4cbf
000001b0: 6d8b 28be 0d0f 5b3e d2ce 083d 0e31 b2bd
000001c0: de85 17bf 6abe b0be edb7 e93d 46be dc3d
000001d0: 1cd6 c23d 18a8 cf3c 95d2 3b3e a532 3cbe
000001e0: 7845 58bd 0003 bcbd 1847 f5bc b3f8 d73d
000001f0: 26f1 8b3f 6592 953e bf7b 283f d372 c53e
00000200: c3a5 233e 0ba9 f83c 1098 c4bc 88ed 95bc
00000210: e9ff b53d 0214 3d3d 591e 73bd 4369 06bf
00000220: c399 eb3d e6d8 5a3f abc9 aabc eff8 1abf
00000230: 0918 85be a8cc 2c3f 82bc 42bd 4779 95bd
00000240: 6975 45bf 8b7b e2be 9f9a 9cbb 7de9 1d3e
00000250: 249a 99b9 6864 1bbd cf33 6f3e ce57 a03d
00000260: 6e2c 3fbd 6519 4a3d 50e2 f73d 1e89 e6bc
00000270: b31a ac3e 5d68 e13c d380 03be 593a 173f
00000280: ac69 353f 6dfc 8dbd 9f7f adbe 6ee4 dfbd
00000290: 4af9 e73e e3e8 08be b665 b1bd 4268 e3be
000002a0: 72d3 153e db4b b03f 291c 993d 145a 35be
000002b0: 5372 17be a59b 8a3f b6ec 91bd b035 82bc
000002c0: 4f13 d5be a99a 913e 6915 4a3d e7db 233e
000002d0: 5b80 55bd 3413 ff3d a650 353f 7be2 e03d
000002e0: 4058 a2bb cf85 793d e08d e83d 3c06 553e
000002f0: 3973 2e3e 50e6 56bc 8215 a7be 7cbf 6e3f
00000300: 72b5 05bf 5d38 913e 8c8c 973e acd4 f0bd
00000310: ef70 213e 26c3 b1bd 93e6 893e 3cbf 443d
00000320: 4f4b a13d d0a1 2abe ee24 233c d1fe 12bf
00000330: 2ca2 2dbe 9866 74be 8d59 a63d 005c bcbb
00000340: 239d c8be 2c56 b7bd 38ac 7a3e 740c 843e
00000350: 9907 803e e860 013e 5a2c b5be bcd9 e43d
00000360: a2ac bb3d d73a 903e d4ce 10bd 6b26 3a3e
00000370: a7e2 a7bd e9c3 e8bc a17b 033e 5100 c4be
00000380: 928b 1ebf ad0a 2a3e 86ec 173e a13c d4bd
00000390: c819 e9bd eef7 963d 057d 643e 7183 2b3e
000003a0: 4108 57be f517 bb3e 610b 943d 7d05 50be
000003b0: 2bad b0be a394 d43e dbde a6bd 0044 b3b9
000003c0: 074c 96be 3429 25bf 554d ab3e 1579 89be
000003d0: 4e41 453d 15d3 8abd d48d 41bf a7b0 cebd
000003e0: 6391 01be 1144 2a3e 08f9 fb3c 2b7b 183e
000003f0: 216e 5c3e 6f17 be3e a2d8 9bbd 5d20 f73e

sequential_4/conv1d_14/Conv1D f4 [64, 1, 3, 64]
0.06298097 -0.06062215 0.0843089 -0.041746058 0.016943896 -0.092346616 -0.074979186 -0.028494708
0.1109392 -0.107459575 -0.07112217 0.032959543 -0.09659672 0.028234411 -0.089076035 -0.14888234
0.082455486 0.013967066 0.085161634 -0.116177775 0.08648779 -0.05000812 -0.015376144 0.028866414
-0.043768823 -0.11123093 -0.07702355 -0.045900453 0.05943424 -0.08547493 -0.059793264 -0.07635689
-0.12937549 -0.062531605 -0.0031484487 -0.06002255 -0.12059511 -0.091473006 0.021907952 -0.068377525
-0.019835642 0.08220028 0.08138056 0.11065462 -0.06810244 0.0443143 -0.09287108 0.07190009
-0.050920937 0.08550495 -0.11544739 -0.11695247 0.03349428 0.033521026 -0.10843826 0.05631109
0.11142439 -0.010803797 -0.05585642 -0.0015456637 0.10546825 -0.06384692 -0.037720777 -0.11423316
-0.11286385 0.022899708 0.03772828 -0.13621749 -0.101436675 -0.08455655 -0.12940072 0.08417304
0.07831559 -0.119449764 -0.07726113 -0.112236686 -0.10267323 -0.016383091 0.01622889 0.0053330357
-0.10153221 0.07123472 -0.0072435057 0.008294637 -0.15128222 0.0724474 -0.021295682 -0.118510306
-0.10388592 -0.12631392 -0.010192952 -0.11020093 0.062468547 -0.0019019609 0.039113544 0.09938088
0.09579596 -0.023369633 -0.05859098 -0.005003055 -0.08935578 -0.12835427 0.08164169 0.096361935
0.032069262 0.043829728 -0.011363576 -0.09083868 0.040829014 -0.04179338 -0.080083385 0.0678062
-0.040763877 -0.044555277 -0.09127483 -0.061626162 -0.11587232 -0.1067054 -0.10991671 -0.028086476
0.074716985 0.020288752 0.07762429 0.058243226 -0.049052354 0.055340014 0.04567549 -0.1257641
-0.076228954 0.07858994 -0.11970171 0.05539725 0.05034889 0.11193365 -0.030435145 -0.11793152
0.013910151 0.12201184 -0.052412555 -0.08980146 -0.12844403 0.052675575 0.045131292 -0.11175139
-0.036398612 0.051445782 -0.09935892 -0.034261025 0.02717091 -0.019526213 0.056010254 -0.070522815
-0.07789615 -0.02610039 -0.12320279 -0.12536772 0.011722418 -0.07300625 -0.065148845 -0.069894135
-0.03908036 -0.039524015 -0.070561945 0.061713975 -0.12331924 0.015448138 -0.07106033 -0.073539555
-0.015904253 -0.07578745 -0.011873207 0.011378096 0.08834989 -0.057606112 -0.06585954 -0.083635315
0.08964786 0.04374659 -0.005924857 -0.09544975 0.110008165 -0.020263225 0.059549123 -0.10506938
0.0029435158 0.046971593 0.073892534 -0.04933884 -0.07295966 -0.004395255 0.05072926 -0.06979962
0.040753737 -0.07525168 0.09064104 -0.121791266 -0.12974143 -0.06409278 0.0075394968 -0.01847757
-0.024274992 -0.0086306 0.028578794 -0.02763908 -0.04816919 -0.10096984 -0.05596707 -0.06771402
0.061581817 -0.10719371 -0.014466772 -0.0011353435 -0.09176365 -0.045713555 0.056190334 -0.027151793
-0.12096375 0.07962455 0.025071207 0.09470127 -0.07314042 -0.10346785 -0.053368706 -0.009206601
0.079983026 -0.073090754 -0.115660496 0.08351282 -0.07317326 -0.052976117 0.028660217 0.03284937
-0.077141926 -0.10589186 -0.06690649 -0.034165442 -0.08294764 0.11849674 -0.008095594 -0.092413224
0.07816942 0.0007561743 0.09612999 -0.06603464 -0.03172132 0.047406755 0.1314581 0.036328197
0.052298784 0.09107681 -0.07913187 0.11352412 -0.035252035 0.049186055 0.12049105 0.07772361
00000000: 2bfc 803d ee4e 78bd 25aa ac3d eafd 2abd
00000010: edcd 8a3c 3920 bdbd b08e 99bd bc6d e9bc
00000020: 1734 e33d c413 dcbd 80a8 91bd 9600 073d
00000030: 80d4 c5bd da4b e73c 7f6d b6bd 9d74 18be
00000040: 6cde a83d 1fd6 643c 3969 ae3d 9dee edbd
00000050: 8320 b13d 50d5 4cbd 39ec 7bbc 4279 ec3c
00000060: f046 33bd 0bcd e3bd 86be 9dbd 1d02 3cbd
00000070: 5171 733d 7b0d afbd c8e9 74bd 0061 9cbd
00000080: 027b 04be 9210 80bd 3456 4ebb 35da 75bd
00000090: 92fa f6bd 3356 bbbd 4e78 b33c 8409 8cbd
000000a0: 5b7e a2bc 9f58 a83d daaa a63d e49e e23d
000000b0: 4b79 8bbd e982 353d 3133 bebd 5b40 933d
000000c0: 7992 50bd 381d af3d ae6f ecbd c784 efbd
000000d0: 4c31 093d 584d 093d e114 debd 75a6 663d
000000e0: 7832 e43d 6902 31bc b4c9 64bd de97 caba
000000f0: bdff d73d 2dc2 82bd 1a81 1abd 13f3 e9bd
00000100: 2a25 e7bd 2b98 bb3c f888 1a3d 997c 0bbe
00000110: 08be cfbd fc2b adbd 9f81 04be ea62 ac3d
00000120: ed63 a03d 14a2 f4bd 153b 9ebd 59dc e5bd
00000130: 5846 d2bd d535 86bc 73f2 843c bfc0 ae3b
00000140: 1ff0 cfbd 82e3 913d ee5a edbb 3be6 073c
00000150: bae9 1abe 4d5f 943d 4874 aebc 88b5 f2bd
00000160: 24c2 d4bd 7058 01be 5700 27bc 06b1 e1bd
00000170: 05df 7f3d 384b f9ba 8635 203d 3488 cb3d
00000180: ac30 c43d ac71 bfbc 18fd 6fbd abf0 a3bb
00000190: 2a00 b7bd 4d6f 03be c233 a73d 6859 c53d
000001a0: 0f5b 033d cd86 333d 4b2e 3abc a109 babd
000001b0: 533c 273d 892f 2bbd c202 a4bd fadd 8a3d
000001c0: 06f8 26bd 987f 36bd 4cee babd b76b 7cbd
000001d0: 784e edbd 5c88 dabd 031c e1bd 9c15 e6bc
000001e0: 3805 993d 9934 a63c 7cf9 9e3d 7390 6e3d
000001f0: 1feb 48bd 36ac 623d 3916 3b3d 4ec8 00be
00000200: ed1d 9cbd c3f3 a03d 2c26 f5bd 3ae8 623d
00000210: a33a 4e3d 783d e53d 2053 f9bc 1586 f1bd
00000220: 67e7 633c 58e1 f93d 8cae 56bd d4e9 b7bd
00000230: d586 03be 58c2 573d 97db 383d eadd e4bd
00000240: b616 15bd d0b8 523d b07c cbbd 4a55 0cbd
00000250: 8795 de3c 70f5 9fbc 026b 653d 446e 90bd
00000260: 0488 9fbd 7cd0 d5bc bf51 fcbd 6560 00be
00000270: 620f 403c 4d84 95bd c26c 85bd a824 8fbd
00000280: ba12 20bd efe3 21bd c882 90bd cbc7 7c3d
00000290: cc8e fcbd 301a 7d3c 1488 91bd e89b 96bd
000002a0: a349 82bc 7336 9bbd d787 42bc 326b 3a3c
000002b0: caf0 b43d 63f4 6bbd 5ee1 86bd fe48 abbd
000002c0: 4c99 b73d a02f 333d 4e25 c2bb 297b c3bd
000002d0: f64b e13d 10ff a5bc c8e9 733d 9d2e d7bd
000002e0: 00e8 403b 4965 403d f854 973d 8617 4abd
000002f0: e06b 95bd 1206 90bb 7cc9 4f3d 1af3 8ebd
00000300: 64ed 263d 8e1d 9abd 02a2 b93d b36d f9bd
00000310: f0da 04be 1343 83bd e20d f73b 465e 97bc
00000320: 59dc c6bc 5c67 0dbc 131e ea3c 5a6b e2bc
00000330: 0e4d 45bd 47c9 cebd ba3d 65bd a6ad 8abd
00000340: 373d 7c3d 6088 dbbd 0a06 6dbc cecf 94ba
00000350: 95ee bbbd 233e 3bbd d627 663d 706d debc
00000360: d8bb f7bd 3212 a33d 2262 cd3c bdf2 c13d
00000370: a5ca 95bd f4e6 d3bd 2599 5abd 49d7 16bc
00000380: 24ce a33d 9bb0 95bd 69df ecbd c508 ab3d
00000390: dddb 95bd 7cfd 58bd d5c8 ea3c 108d 063d
000003a0: 96fc 9dbd d5dd d8bd 4506 89bd 10f1 0bbd
000003b0: 74e0 a9bd 6bae f23d 62a3 04bc 2543 bdbd
000003c0: 4a17 a03d 003a 463a cddf c43d 2b3d 87bd
000003d0: 37ee 01bd 962d 423d f49c 063e e0cc 143d
000003e0: 4037 563d 7b86 ba3d e40f a2bd 557f e83d
000003f0: 7064 10bd 5177 493d 03c4 f63d 8e2d 9f3d

sequential_4/dense_9/BiasAdd/ReadVariableOp f4 [5]
-0.04291365 0.17075953 -0.004128924 0.08928425 -0.2729397
00000000: 39c6 2fbd 96db 2e3e ed4b 87bb a9da b63d
00000010: c1be 8bbe

sequential_4/dense_8/BiasAdd/ReadVariableOp f4 [30]
-0.04743088 -0.0060051894 0.026721103 -0.14044926 -0.048796967 -0.006005319 0.11114402 0.035975
-0.09029904 -0.011414973 -0.061481375 0.10359808 -0.30210763 -0.058473866 -0.07602967 -0.093485445
0.0 0.43880507 -0.025141893 -0.13964853 -0.019066013 0.15982726 0.06437156 0.0
-0.031883504 -0.03578079 0.049707066 -0.006075735 0.34726813 0.15590498
00000000: e246 42bd 2ec7 c4bb 37e6 da3c eed1 0fbe
00000010: 54df 47bd 44c8 c4bb 7a9f e33d 865a 133d
00000020: b4ee b8bd de05 3bbc e5d3 7bbd 3b2b d43d
00000030: daad 9abe 4b82 6fbd 72b5 9bbd 4c75 bfbd
00000040: 0000 0000 0fab e03e 5ff6 cdbc 0600 0fbe
00000050: 5430 9cbc c2a9 233e 3dd5 833d 0000 0000
00000060: 4798 02bd e18e 12bd a399 4b3d f616 c7bb
00000070: 21cd b13e 8ea5 1f3e

sequential_4/dense_8/MatMul f4 [30, 64]
-0.13316843 -0.10148382 -0.11700836 -0.001644901 0.05127693 -0.0038809031 0.13978638 -0.13715866
-0.08004303 -0.18114658 -0.2501999 -0.20812361 -0.24203013 -0.21154588 -0.05278162 -0.19589233
0.014442882 -0.03676074 -0.19348972 0.1630712 -0.23674777 -0.023550479 -0.27864307 0.11880209
-0.1504914 0.07051426 -0.10380505 -0.3024052 -0.04793738 -0.10951838 -0.03730463 -0.207208
-0.047418877 0.24467221 -0.17270239 0.014010086 0.20235758 -0.09822779 -0.1042458 0.13186619
-0.08433603 -0.22609732 -0.18058996 -0.22386076 0.0019113959 -0.20389341 0.032493588 0.07428506
-0.22346252 0.13213792 -0.07086728 -0.07375638 0.19086927 -0.047289908 0.20640266 0.097123764
-0.012961437 -0.031560574 -0.08264363 -0.015963111 -0.2220681 -0.271193 -0.0136112785 0.0861547
-0.13674808 -0.22400954 -0.046112057 -0.0146755325 -0.1826293 -0.15712732 0.17887984 0.095637925
-0.056407243 0.21850161 0.04059321 -0.17109539 -0.0005330891 0.24316072 0.17881228 0.065651566
-0.20426835 0.0800481 -0.00934917 -0.026390396 -0.17366424 -0.03749027 -0.0042718546 -0.059529204
0.039069064 -0.04389806 -0.24241401 -0.25718188 -0.14488481 -0.056241807 0.23823258 -0.23424262
-0.08888964 0.17074293 -0.029446516 -0.10520771 -0.21450597 0.025201384 -0.04431507 0.21167253
-0.027986582 -0.11157361 -0.15572509 -0.10887636 0.009559672 -0.06620736 -0.021138042 0.19217196
-0.012281016 -0.24725991 0.030070825 -0.20069401 -0.25021178 0.07332875 0.17838465 0.09344746
0.24458283 0.12272325 -0.1841239 0.23648238 -0.23324654 -0.17085147 -0.14105618 -0.08658501
-0.034593992 -0.0101612955 1.0291594 0.4194627 -1.1459074 0.08220976 -0.076805 0.14796492
0.046141498 1.763145 0.011197247 -0.14643778 -0.7788014 0.055786844 -1.4308088 0.101510525
0.46232262 -1.0496123 -0.21846874 -0.2568436 -0.50749034 0.1902796 0.26558986 -0.06385536
-0.17876318 0.24691248 0.22856921 -0.67769283 -0.14884976 -0.023558512 -0.51221913 0.26773983
-0.18410672 -0.17746788 -0.12524533 -1.5214334 0.17371996 -0.18554284 0.11755775 -0.06930052
-0.00466229 0.31602374 0.31828266 -0.0996421 -0.023565803 -0.5188679 0.13321656 0.21661994
0.27996486 -3.5869973 0.37499055 0.014411952 -0.61449265 0.106798336 -0.026299184 1.2351122
0.45074123 0.40613124 0.4891259 -0.27690023 -0.45672834 -0.44156846 0.25020844 0.04981473
0.15653886 0.17326711 -0.541316 0.35752785 0.2827316 0.010070423 -0.036587328 -0.079737015
-0.6448047 -0.93929696 -0.18817888 0.13402349 0.20973837 -0.16164066 -0.32882506 -0.20548342
-0.38124606 1.783094 -0.042911682 -1.6017517 -1.1567378 0.042447884 -0.5317274 -0.19806322
-0.02615472 0.22175995 -0.15746844 -0.2270386 0.049372155 0.05368779 -0.23760149 0.41415876
0.19355322 0.10194696 -0.083297074 0.47520104 0.42743328 -0.11177868 0.16166702 -0.09646634
0.09043371 0.113013774 0.11289317 -0.16384669 -0.12720011 -0.2609384 0.10555614 -0.00062033813
1.4556882 0.3273012 0.19275166 0.18792382 -0.3078223 0.21974955 -0.08502424 -0.09296521
0.14994009 0.3580464 0.0025963648 0.012242747 -0.056834396 -0.15343064 0.39274892 -0.17593716
00000000: 4e5d 08be c0d6 cfbd 14a2 efbd b899 d7ba
00000010: c207 523d c056 7ebb 2924 0f3e 5273 0cbe
00000020: 9aed a3bd 7d7e 39be 341a 80be 5b1e 55be
00000030: bfd6 77be 7c9f 58be 8a31 58bd 0098 48be
00000040: d6a1 6c3c 6e92 16bd 2b22 46be 23fc 263e
00000050: 026e 72be efec c0bc 4eaa 8ebe 834e f33d
00000060: 6b1a 1abe c869 903d be97 d4bd dbd4 9abe
00000070: fc59 44bd 2c4b e0bd bdcc 18bd 552e 54be
00000080: 4c3a 42bd 5a8b 7a3e e5d8 30be 8f8a 653c
00000090: d336 4f3e a72b c9bd d27e d5bd ee07 073e
000000a0: 5eb8 acbd 0e86 67be 93ec 38be c13b 65be
000000b0: ce87 fa3a 6fc9 50be ff17 053d c422 983d
000000c0: 5cd3 64be 2a4f 073e dd22 91bd 960d 97bd
000000d0: 3c73 433e 10b3 41bd 385b 533e d3e8 c63d
000000e0: 355c 54bc a945 01bd 1041 a9bd 12c5 82bc
000000f0: d265 63be cfd9 8abe d701 5fbc e071 b03d
00000100: b007 0cbe c262 65be ffdf 3cbd a571 70bc
00000110: 2d03 3bbe fce5 20be 472c 373e d1dd c33d
00000120: 480b 67bd e3be 5f3e 1145 263d a133 2fbe
00000130: 01bf 0bba 20ff 783e 911a 373e 5474 863d
00000140: b92b 51be 42f0 a33d 432d 19bc ac30 d8bc
00000150: 0ad5 31be 668f 19bd eafa 8bbb e5d4 73bd
00000160: e206 203d 74ce 33bd 613b 78be 58ad 83be
00000170: af5c 14be cf5d 66bd 3ef3 733e 4cdd 6fbe
00000180: c60b b6bd 3cd7 2e3e d239 f1bc 2477 d7bd
00000190: 74a7 5bbe 2273 ce3c b883 35bd afc0 583e
000001a0: 1e44 e5bc b480 e4bd 6676 1fbe 92fa debd
000001b0: 2ca0 1c3c b997 87bd b029 adbc bac8 443e
000001c0: 5136 49bc b431 7dbe 1757 f63c bb82 4dbe
000001d0: c21b 80be 622d 963d 77aa 363e 6261 bf3d
000001e0: ec73 7a3e 5456 fb3d fa8a 3cbe 7028 723e
000001f0: 2ed8 6ebe b0f3 2ebe 0871 10be 7b53 b1bd
00000200: 6eb2 0dbd 907b 26bc 7fbb 833f d1c3 d63e
00000210: 18ad 92bf 975d a83d f14b 9dbd 1e84 173e
00000220: defe 3c3d bcae e13f a874 373c c9f3 15be
00000230: 875f 47bf bf80 643d be24 b7bf c0e4 cf3d
00000240: 8db5 ec3e b259 86bf 45b6 5fbe 0181 83be
00000250: e3ea 01bf a8d8 423e 65fb 873e 99c6 82bd
00000260: b20d 37be a0d6 7c3e 0c0e 6a3e 477d 2dbf
00000270: 126c 18be c8fd c0bc cb20 03bf 3215 893e
00000280: 7986 3cbe 24ba 35be 5040 00be 54be c2bf
00000290: a5e3 313e f1fe 3dbe 1ec2 f03d 6eed 8dbd
000002a0: 20c6 98bb ddcd a13e f2f5 a23e 2811 ccbd
000002b0: 120d c1bc 87d4 04bf ec69 083e 9ed1 5d3e
000002c0: 8e57 8f3e 5d91 65c0 c3fe bf3e 1c20 6c3c
000002d0: 644f 1dbf 16b9 da3d 6371 d7bc 2818 9e3f
000002e0: 8ec7 e63e 6ff0 cf3e b66e fa3e dec5 8dbe
000002f0: 4cd8 e9be 4315 e2be 521b 803e 880a 4c3d
00000300: b94b 203e ef6c 313e af93 0abf e40d b73e
00000310: 32c2 903e 6afe 243c 98dc 15bd 294d a3bd
00000320: ec11 25bf c475 70bf f7b1 40be 743d 093e
00000330: a8c5 563e 2185 25be c25b a8be 3f6a 52be
00000340: af32 c3be 6d3c e43f 29c4 2fbd 3306 cdbf
00000350: fc0f 94bf d5dd 2d3d 491f 08bf 16d1 4abe
00000360: 6c42 d6bc 0a15 633e 683f 21be cf7c 68be
00000370: 753a 4a3d bae7 5b3d ce4d 73be 9e0c d43e
00000380: d132 463e 91c9 d03d a897 aabd 8d4d f33e
00000390: 89d8 da3e 38ec e4bd 0a8c 253e 2590 c5bd
000003a0: 4f35 b93d c473 e73d 8934 e73d 6dc7 27be
000003b0: bf40 02be b899 85be d12d d83d 309e 22ba
000003c0: fe53 ba3f 0694 a73e b160 453e 1a6f 403e
000003d0: e29a 9dbe 0706 613e 3021 aebd 8b64 bebd
000003e0: e589 193e dc51 b73e c627 2a3b cd95 483c
000003f0: 2fcb 68bd ec1c 1dbe 6316 c93e df28 34be

sequential_4/dense_9/MatMul f4 [5, 30]
0.068624265 0.16313493 0.9798245 -0.3489367 0.34335086 -0.2579813 -1.3681692 -1.3594013
0.061824087 0.26437148 -0.30950472 1.316302 -2.616462 0.18266927 -2.6395154 -0.90103865
-0.12354782 0.4222645 0.052396473 -0.55281574 0.0843247 1.1456598 -4.1074095 -0.31108823
-0.29808202 0.25273886 0.2570579 -1.6789563 0.6551099 -0.6205258 -0.27107164 -0.08140592
-0.9093139 0.3420976 -0.2368647 0.27191883 -0.60854274 -1.1029706 -0.24180694 0.33062816
-0.12337052 -0.9706862 -2.948065 -0.30774555 -0.3580695 0.029678343 0.05418232 0.5720281
-0.23334034 0.9397752 -0.36243412 -0.12573786 -0.9159444 0.051162243 -0.38489476 0.030168734
-0.9531227 -0.63803774 0.7256428 0.27394676 -0.3608291 0.017817603 -0.7201501 0.67772716
0.1431334 0.12874392 0.38899648 0.4635946 0.05868095 0.108026356 -0.19919378 0.22004712
-0.32447037 -0.37887374 0.7587312 -0.5194614 -0.092629105 -0.28727558 -1.6225828 -0.53197646
-0.018981928 -0.84996676 0.5284296 0.24045756 0.15455365 0.31214696 0.04057724 1.1407245
-0.06759241 0.7938101 -0.31870914 -0.348279 0.56113386 -1.4839113 -0.15335439 -0.36536926
-0.118911184 0.39401168 -0.3319385 -0.12282254 0.038506184 -1.0452368 0.469664 0.021708027
-0.29344374 0.28846818 -0.14838433 0.3259297 0.48251948 -0.20853609 0.10832077 -0.6871574
0.17789333 0.08137947 0.29662824 0.23021278 0.73249364 -0.20417735 -0.739365 -0.08926292
0.22477317 -0.13408181 -0.3245552 -0.70720255 0.25268412 0.2195249 -0.44264364 -0.08852263
-0.29009897 -0.20186757 0.23831487 1.6983718 0.8139121 -0.16705856 0.07277517 0.58558416
-0.09995711 -2.194283 0.4804654 0.63554245 -0.19576539 -0.04001779 0.0039430703 -0.041198283
0.37597236 -0.27712417 0.44527233 -0.0042843865 -1.464334 -0.28266156
00000000: e18a 8c3d d80c 273e c7d5 7a3f d5a7 b2be
00000010: afcb af3e 2016 84be 2b20 afbf dd00 aebf
00000020: 413b 7d3d b35b 873e 6777 9ebe 957c a83f
00000030: 1d74 27c0 a70d 3b3e d2ed 28c0 78aa 66bf
00000040: a406 fdbd 0d33 d83e af9d 563d 5585 0dbf
00000050: 6eb2 ac3d fba4 923f e66f 83c0 f546 9fbe
00000060: 359e 98be fd66 813e 189d 833e 0ae8 d6bf
00000070: 48b5 273f c7da 1ebf e7c9 8abe 26b8 a6bd
00000080: ccc8 68bf 6b27 af3e a98c 72be f238 8b3e
00000090: 75c9 1bbf 242e 8dbf 3d9c 77be 1848 a93e
000000a0: afa9 fcbd e47e 78bf 19ad 3cc0 d390 9dbe
000000b0: e354 b7be ff1f f33c 48ee 5d3d 6f70 123f
000000c0: c5f0 6ebe 1c95 703f f790 b9be 6dc1 00be
000000d0: 557b 6abf 808f 513d ed10 c5be 6c24 f73c
000000e0: d9ff 73bf 7156 23bf bac3 393f c042 8c3e
000000f0: 97be b8be 39f6 913c c25b 38bf 877f 2d3f
00000100: 9091 123e 72d5 033e 8c2a c73e 455c ed3e
00000110: 705b 703d ec3c dd3d 74f9 4bbe 0854 613e
00000120: fb20 a6be bdfb c1be 353c 423f 6cfb 04bf
00000130: 54b4 bdbd c915 93be cbb0 cfbf 9c2f 08bf
00000140: fd7f 9bbc 6c97 59bf 2a47 073f 823a 763e
00000150: 5043 1e3e bad1 9f3e 5234 263d 4303 923f
00000160: e46d 8abd 2437 4b3f d82d a3be a051 b2be
00000170: 78a6 0f3f cef0 bdbf ef08 1dbe ae11 bbbe
00000180: b587 f3bd e6bb c93e d8f3 a9be 628a fbbd
00000190: a9b8 1d3d 52ca 85bf cd77 f03e 08d5 b13c
000001a0: 423e 96be 1ab2 933e 10f2 17be 42e0 a63e
000001b0: cb0c f73e 7c8a 55be 48d7 dd3d 8ce9 2fbf
000001c0: ab29 363e 48aa a63d a8df 973e e6bc 6b3e
000001d0: b484 3b3f de13 51be 0647 3dbf 7acf b6bd
000001e0: f02a 663e be4c 09be 192c a6be 3a0b 35bf
000001f0: d05f 813e 23cb 603e 30a2 e2be 5a4b b5bd
00000200: da87 94be 5fb6 4ebe d008 743e 3f64 d93f
00000210: 8b5c 503f 6611 2bbe 260b 953d d8e8 153f
00000220: 50b6 ccbd 226f 0cc0 90ff f53e e9b2 223f
00000230: b976 48be b2e9 23bd df34 813b 88bf 28bd
00000240: 737f c03e 38e3 8dbe bcfa e33e 0a64 8cbb
00000250: 4c6f bbbf 04b9 90be
