Pred_model_CNN1_15.tflite (tflite, 59228 bytes, 9 tensors)

sequential_2/dense_4/BiasAdd/ReadVariableOp f4 [30]
000000 00 00 00 00 00 00 00 00 00 00 00 00 4c 85 15 bd
       0.0 0.0 0.0 -0.036504075
000010 00 00 00 00 15 89 73 3c 00 00 00 00 00 00 00 00
       0.0 0.014864226 0.0 0.0
000020 75 d3 27 bd 52 f8 dd bb b9 fa 92 3c 15 12 af 3c
       -0.040973146 -0.006773987 0.01794182 0.021370927
000030 c4 f6 01 bd 24 6f 46 3c 7b fb 44 3c 08 80 93 3d
       -0.031729475 0.012111459 0.012022848 0.072021544
000040 00 00 00 00 00 00 00 00 4c c3 05 bd 04 21 0c 3c
       0.0 0.0 -0.032656953 0.008552793
000050 a7 51 b9 3c 00 00 00 00 00 00 00 00 00 00 00 00
       0.022621943 0.0 0.0 0.0
000060 00 00 00 00 b2 2d 74 3b 87 c1 ae 3c 6b 64 09 3c
       0.0 0.0037258682 0.021332515 0.008385758
000070 5a 67 42 bc 00 00 00 00
       -0.011865461 0.0

sequential_2/conv1d_8/BiasAdd/ReadVariableOp f4 [32]
000000 83 0c b2 bc 35 d4 6a bd 3c 7e e1 3b 6d 82 b6 3d
       -0.021734482 -0.057331283 0.0068815034 0.089115955
000010 a1 d7 c1 bd 37 4d 17 3f 56 7b 7f 3b 50 8c 77 be
       -0.09464956 0.59102196 0.0038983426 -0.24174619
000020 4b 1d da 3b 5d 75 6c bd 48 bf c4 3e 61 dd 20 bb
       0.006656324 -0.057729114 0.38427186 -0.0024546015
000030 4b 2e 5f bb 2e aa ef 3d 94 65 67 bc bf 54 10 bc
       -0.0034054692 0.11702381 -0.014123339 -0.008809268
000040 7d d1 ad bd de db a9 3b 36 a4 0a 3c a0 b4 dc 3c
       -0.08487222 0.005183681 0.0084620025 0.026941597
000050 45 75 d8 bc f2 dc a9 3e 89 1f 82 ba 07 6f 10 bd
       -0.026423106 0.3317638 -0.0009927611 -0.035262134
000060 52 2f 1f bd 84 24 01 3e ce 0d 84 3e 4f bf d8 bb
       -0.038863488 0.12611586 0.25791782 -0.0066146026
000070 95 3e c4 39 c3 7b 04 bd ec 73 a0 bc c2 55 2a 3b
       0.0003743066 -0.03234459 -0.019586526 0.0025991057

sequential_2/conv1d_7/BiasAdd/ReadVariableOp f4 [64]
000000 44 64 b2 3d 9e 24 d2 3c eb 3d a9 3d 43 b0 8d 3d
       0.087105304 0.025652226 0.08263763 0.06918385
000010 c0 1b b0 3d 10 b1 c3 3d 74 9a cc 3d 69 38 8a 3d
       0.08599043 0.09555256 0.09990397 0.06749041
000020 36 d6 32 bd 6c 13 b3 3d 43 a3 88 3d 90 ef e4 3d
       -0.04366132 0.08743939 0.06671765 0.111785054
000030 ec 7e c9 bc 53 05 c7 3d 6c f2 b1 3d 3c e9 b8 3d
       -0.024596654 0.097178124 0.086888164 0.09028861
000040 9c d5 a7 3d 46 72 7f bd b6 a1 ce 3d 51 f8 98 3d
       0.0819504 -0.06236484 0.10089438 0.074692376
000050 e3 47 9f bc 0f e4 c3 bc 0d 7d 8d bc d3 f4 b1 3d
       -0.019443458 -0.023912458 -0.017271543 0.08689275
000060 00 00 00 00 ea 14 b6 3d ea a2 ba 3d 08 b0 c2 3d
       0.0 0.08890708 0.09113105 0.095062315
000070 50 a7 c9 3d 77 7d e7 3d 44 ca b7 3d 9d b1 ba 3d
       0.098463655 0.113032274 0.08974126 0.09115908
000080 45 12 c3 3d af 11 d8 3d 7f 08 21 bc a5 19 9b 3d
       0.09524969 0.10550248 -0.009828686 0.07573251
000090 ac 0f dc 3d 30 16 80 3d 34 a8 b7 3d 0a a3 89 bc
       0.10745177 0.06254232 0.08967629 -0.016801376
0000a0 1e 2d bd 3d 86 08 bd 3d e1 00 98 3d a5 91 da bc
       0.09237121 0.09230141 0.07422043 -0.026680777
0000b0 91 65 12 bd 4f 77 ef bb 92 77 ac 3d ab a5 ab 3d
       -0.035741393 -0.007307924 0.08421244 0.08381208
0000c0 8e a2 9c 3d 47 b4 ae bc d1 99 bb 3d d9 d2 a7 3d
       0.07648192 -0.021326197 0.091601975 0.08194513
0000d0 68 aa ab 3d 45 d5 b5 3d 2e b9 f8 bc b6 fa ab 3d
       0.08382112 0.088785686 -0.030361738 0.08397429
0000e0 c0 aa 3b bd ad 5d bb 3d 94 09 1d bd cd e9 8f bd
       -0.045817137 0.091487266 -0.038339213 -0.07027016
0000f0 a6 f2 d5 bc 92 89 d3 3d ff 4a b3 3d 99 ae b3 3d
       -0.02611668 0.10328974 0.08754539 0.08773536

sequential_2/conv1d_6/BiasAdd/ReadVariableOp f4 [32]
000000 4c 83 1a 3e f0 38 3e 3a 60 8b 0f 3e 00 00 00 00
       0.15089148 0.0007256409 0.14018011 0.0
000010 45 1e 24 3e ee 02 cf 3d 23 51 8b 3c ad 39 f4 3d
       0.16027172 0.10107981 0.017006462 0.11925063
000020 91 c8 2a 3d e0 8e 9d 3d 3f ff 6f 3d ee 20 11 3e
       0.04169518 0.07693267 0.05859303 0.14172718
000030 44 4c b1 3d cb 8a c5 3d b6 2a 52 3d 00 00 00 00
       0.08657125 0.09645613 0.051310264 0.0
000040 08 c7 3a 3e dd 09 f8 3d 67 d8 7d 3c 97 c5 c0 3d
       0.18239987 0.12111256 0.015493489 0.09412687
000050 a1 e7 58 3d 00 00 00 00 0b 6f fd 3d 6a e4 d2 3d
       0.052955274 0.0 0.123746954 0.10297473
000060 00 00 00 00 f2 63 98 bc 00 00 00 00 9e 8e 1a 3e
       0.0 -0.018602345 0.0 0.15093467
000070 8c 5a 09 3e 87 8a a1 3d d4 58 9f 3e 69 93 89 3d
       0.13413447 0.0788775 0.31122458 0.067175694

sequential_2/dense_4/MatMul f4 [30, 32]
000000 3e e8 27 be 1a ea ff bd 0c 71 df bd 50 7d 83 3c
       -0.16397187 -0.12495823 -0.10910234 0.016050965
000010 98 2c 7e 3d c0 95 9c bb 80 11 72 3e 37 f0 2c be
       0.062054247 -0.004778594 0.23639488 -0.1688851
000020 be d8 c9 bd d4 bf 51 be e4 bb 9d be 2d 35 83 be
       -0.098557934 -0.20483333 -0.30807412 -0.25626507
000030 2b 19 8c be 80 5d 85 be 28 3c 03 bd 54 fe 76 be
       -0.27362952 -0.26047897 -0.03203979 -0.24120456
000040 58 6d 58 3d e8 8d 57 bd d0 f6 73 be e6 3a 3d 3e
       0.052838653 -0.052625567 -0.2382462 0.18479499
000050 90 aa 83 be 70 36 e2 3c 1f e9 99 be f6 c3 2c 3e
       -0.25716066 0.027613848 -0.3006067 0.16871628
000060 54 f2 17 be 40 72 d5 3d 4d e2 02 be a2 86 9e be
       -0.14838535 0.10422182 -0.1278164 -0.30962092
000070 18 c5 71 bd 75 16 0a be 80 a5 e7 3b 54 94 82 be
       -0.059025854 -0.13485129 0.0070692897 -0.2550379
000080 a7 6d 26 be d3 72 89 be d0 4c 4a bd 80 ba 32 bc
       -0.16252767 -0.26845416 -0.04938966 -0.010908723
000090 0b b6 5e be 35 8f 3e be 94 1c 69 3e e0 27 00 3e
       -0.21749131 -0.18609317 0.22764808 0.12515211
0000a0 ac 4f 7e bd c8 78 8a 3e 78 98 6a 3d 26 2d 50 be
       -0.0620877 0.27045274 0.05727431 -0.20329723
0000b0 40 27 dc 3b 6c fb 98 3e 2c 04 69 3e 24 d4 b3 3d
       0.006718546 0.2987932 0.22755498 0.08780697
0000c0 9a eb 7a be 00 d7 d8 3d 40 fb 98 bb 90 a8 cd bc
       -0.24503937 0.10587883 -0.004668623 -0.02510479
0000d0 5c 66 53 be 90 09 1f bd 00 27 04 3b b6 00 87 bd
       -0.20644516 -0.03882748 0.0020164847 -0.065919325
0000e0 c0 50 63 3d d8 65 5d bd 6e 1d 95 be 58 6b 9e be
       0.05549693 -0.054052204 -0.29124016 -0.30941272
0000f0 49 90 36 be e8 f4 7d bd 7a 30 96 3e cb 0a 90 be
       -0.17828478 -0.06200114 0.2933386 -0.28133234
000100 00 10 14 3b c0 6a 89 bb 00 4f 6c 3e 32 79 84 3e
       0.0022592545 -0.004193634 0.23077011 0.25873715
000110 b8 d3 cc bd 00 4a e2 3d 78 d4 ce 3d e4 86 43 3e
       -0.1000132 0.11049271 0.10099119 0.19094425
000120 80 7b bb 3b b4 33 d1 bd 0e dd 88 bd e4 a8 2f be
       0.0057215095 -0.1021494 -0.06682788 -0.1715427
000130 78 e9 9e be 7c c4 bc 3d 60 29 c8 3c 4c c0 0b 3e
       -0.31037498 0.09217164 0.024433792 0.13647574
000140 cc 1e ec 3d 92 05 9b bd 30 d0 84 be fd 0c 00 be
       0.115293115 -0.07569422 -0.25940084 -0.12504955
000150 1e b7 10 3e 4c 70 2c 3e f2 83 89 be 7c 80 7c 3e
       0.14132354 0.16839713 -0.2685848 0.24658388
000160 52 3b 05 3e a0 d5 5e bc 62 99 94 3e fd 9a 94 be
       0.1301091 -0.013600737 0.29023272 -0.29024497
000170 33 f4 3b be b0 85 9c bc bc 21 5a be 10 34 83 3c
       -0.18354873 -0.019106716 -0.21301931 0.016016036
000180 a1 c5 0d 3e e0 02 62 3e 5b 83 07 3e 14 f4 79 3e
       0.1384492 0.22071409 0.13233702 0.24409515
000190 e0 b7 00 be d0 bd a3 3c b2 5f 91 bd d2 ef b9 bd
       -0.12570143 0.01998797 -0.070983306 -0.09078945
0001a0 db 65 a8 be b1 79 8a 3e 24 71 1b be 64 ee 09 3e
       -0.3289021 0.27045968 -0.15179878 0.13469845
0001b0 3d 65 7b 3e 0a 03 6e be 4f a2 13 3e c9 08 92 be
       0.24550338 -0.23243347 0.14417385 -0.28522328
0001c0 af 60 0e be 66 03 21 3e b4 6d 98 bd a7 e2 30 3d
       -0.1390407 0.15723953 -0.07442799 0.043184903
0001d0 f2 c8 78 3d 8f a5 ea 3d a3 05 b9 bb 83 0a d9 3b
       0.06073851 0.11457359 -0.005646424 0.0066235675
0001e0 e0 50 71 3c 8e 28 b6 bb 0c ff 58 be 75 2c aa be
       0.014728755 -0.0055590337 -0.21191043 -0.33237043
0001f0 88 bb bc 3c 9f 4f b3 3c 20 40 8b bd 67 99 8e be
       0.02303864 0.021888552 -0.0679934 -0.27851412
000200 60 26 8d 3d 98 91 e6 3d 40 91 32 3d 40 e8 4f bd
       0.06892085 0.112582386 0.043595552 -0.0507586
000210 10 bc 2d bd 6e ee 28 be 1c d3 3b 3e c0 54 30 3d
       -0.04241568 -0.16497204 0.1834225 0.043049574
000220 48 8f 9b be e8 32 bc bd 84 78 79 3e f3 0b 88 be
       -0.30382752 -0.09189397 0.2436238 -0.26571617
000230 fe 8e 56 be 02 05 21 3e 30 f9 5f bd ee c1 df bd
       -0.20952985 0.15724567 -0.054681003 -0.10925661
000240 b8 a8 12 be 70 8d 43 3d cc 71 49 3e ae bd 87 3e
       -0.14322174 0.047742307 0.19672316 0.26511902
000250 a2 cf 06 3e 78 1a 80 be 50 f4 89 be b8 82 5b bd
       0.13165143 -0.25020194 -0.26944208 -0.05359146
000260 5a 2a f8 bd 6e 53 45 be 08 c7 31 3d b4 fe df 3d
       -0.12117453 -0.19270107 0.0434027 0.10937253
000270 c5 6b 13 be 34 bf 37 be 97 00 9d be 1c 6e 81 3e
       -0.1439658 -0.17944032 -0.30664513 0.2527932
000280 62 df 07 3f 77 ee 44 be 4b 8f dd 3d 29 71 bf bf
       0.5307523 -0.19231592 0.108183466 -1.4956409
000290 c3 6b 11 be 61 98 a7 3f a0 6c 5f 3e fe 69 fa 3e
       -0.14201264 1.3093377 0.21818781 0.4890899
0002a0 cf 75 de 3e 0a dd 4b be fd 45 72 3f 62 d6 e8 3e
       0.43449256 -0.19908538 0.94638044 0.4547606
0002b0 ba 3a 9c 3e 6a 6e 7e bf cd 96 68 3e 0f bc 18 3e
       0.30513555 -0.9938723 0.22713776 0.14915489
0002c0 3b 67 90 3e 78 b4 8b 3e 33 a7 f8 3e 75 e5 0c bf
       0.2820376 0.27286124 0.48565063 -0.55037624
0002d0 37 29 51 3e 76 38 5b bf 5a 73 83 3e d2 52 71 bd
       0.20425878 -0.8563303 0.25673944 -0.058916874
0002e0 01 38 9c bd 97 a5 d0 3e 4d 05 be be 20 b1 1d 3e
       -0.076278694 0.40751335 -0.3711342 0.15399599
0002f0 b0 53 bf 3e 17 a3 e8 bb 4c ed 36 3e db 16 03 3f
       0.37368536 -0.00709952 0.17863959 0.5120675
000300 3f b8 10 be 79 2d 9d be c0 bc ad bd a4 f3 1e be
       -0.14132784 -0.30698755 -0.08483267 -0.15522629
000310 9c 20 43 3e 64 bc 8a 3e 90 0d f6 3d f1 7d 79 be
       0.19055408 0.27096856 0.120143056 -0.24364449
000320 46 5d 9d be 35 a0 27 be e0 fa 78 3e c0 69 81 bd
       -0.30735224 -0.16369708 0.24314451 -0.06318998
000330 00 9c 01 bd bc 09 7a be 54 ce 8f 3e a2 51 a0 bd
       -0.031642914 -0.24417776 0.28087103 -0.0782807
000340 20 1d 54 3e 18 7f 9a be 38 e0 5b 3e dc 46 48 be
       0.20714235 -0.3017509 0.21472251 -0.1955828
000350 ec 5a c3 3d 40 0c e4 bd 7e 81 9e bd 7c 6a 67 3e
       0.09538826 -0.11135149 -0.077395424 0.22599214
000360 73 4f 0c be a0 51 5b bc 18 d3 3e 3d 24 bf 18 be
       -0.13702182 -0.01338616 0.046588033 -0.14916664
000370 10 f4 a0 3d 7c c3 5a be 50 78 e7 3d 62 2b 07 be
       0.07859051 -0.21363634 0.11302245 -0.13200143
000380 5c c2 96 3d a4 fe 0e be e0 4f 80 3d 5c ab 8d be
       0.0736129 -0.13964325 0.06265235 -0.276698
000390 48 4b 8f 3d 84 5d 6c be 0e c9 86 3e 60 b7 5a bc
       0.06996781 -0.23082548 0.26325268 -0.013349384
0003a0 8a 29 8a be f4 f7 2c be 70 fc 2f be 6c 84 ca bd
       -0.26984817 -0.16891462 -0.17186141 -0.09888539
0003b0 1e e3 86 bd a0 eb c0 bd a0 39 23 bd 4e 6d 4e be
       -0.06586288 -0.09419942 -0.039849877 -0.20158884
0003c0 d4 ec ff 3d b0 44 bd bc 56 98 9c be 52 68 65 be
       0.12496343 -0.023104042 -0.30584973 -0.22403076
0003d0 7e 44 26 3e 7c 96 9d 3e 62 73 9b be d4 31 c0 3d
       0.16237065 0.30778873 -0.30361468 0.09384504
0003e0 3c 1c 90 3e 8b 0a 78 be 30 f5 29 bd 28 61 82 3e
       0.2814654 -0.24222772 -0.041493595 0.2546475
0003f0 ac 61 5c be f1 75 88 be b0 a2 b3 3d 5d c6 80 be
       -0.21521634 -0.26652482 0.087712646 -0.2515134

sequential_2/dense_5/MatMul f4 [1, 30]
000000 dc 89 53 3e e6 2e a1 be 1b b2 c4 be 59 87 71 be
       0.20658058 -0.31481093 -0.38417134 -0.23586787
000010 74 53 86 3e ee 4b 00 3f 80 19 a4 bd 40 c9 4d 3c
       0.26235545 0.5011586 -0.08012676 0.012560189
000020 d8 81 a7 be 1b 16 05 be 68 22 08 3f eb 97 84 be
       -0.3271625 -0.12996714 0.531775 -0.25897154
000030 1e 7d 34 be 0a ec d7 3e 45 4d ef 3e aa 29 11 bf
       -0.17625853 0.4217227 0.4673864 -0.567042
000040 9c eb 65 3e 10 24 55 bd dd 60 8b be 1e 37 df 3e
       0.22453159 -0.052036345 -0.27222338 0.4359674
000050 19 1b 2f 3f 14 f9 80 be b8 7a d4 3d 72 28 3e be
       0.6840072 -0.25190032 0.10374969 -0.18570116
000060 34 8c 9d 3e 62 c2 88 be 63 e1 15 3f 52 2e 0e 3e
       0.3077103 -0.26710802 0.5854704 0.13884857
000070 06 65 c3 be e8 5b 75 3e
       -0.38163012 0.2396084

sequential_2/conv1d_6/Conv1D f4 [32, 1, 3, 1]
000000 e3 c3 8b be 41 6a cf bc cd 9e 21 3e 33 79 42 3e
       -0.27297887 -0.02531922 0.15783234 0.18991546
000010 f5 6c fe bc 70 9a 99 bd 6b 4f 79 3c 35 4d 27 3d
       -0.031057814 -0.0750016 0.015216689 0.040845115
000020 b9 6a 69 be bc 00 04 bd c0 3d e6 bc 08 60 d6 bd
       -0.22794618 -0.032227263 -0.028105617 -0.10467535
000030 a2 76 47 be 52 74 17 be 51 9c 48 3e fb 1e 98 3b
       -0.19478849 -0.14790466 0.1959088 0.004642365
000040 86 29 8e 3e fe f5 81 be d1 fb 74 3e a0 55 c4 3e
       0.27766055 -0.2538299 0.23924185 0.38346577
000050 d9 c4 8c be 2c b4 38 be cf 55 4c 3d c2 f9 78 3c
       -0.27493933 -0.1803748 0.04988652 0.015196266
000060 2d 2d 1a bd 79 ae 99 be ba 81 a2 3e bf 4c 39 bd
       -0.03764074 -0.30015925 0.317396 -0.045239206
000070 69 2b b6 be d9 e8 85 3e 74 4e 92 bd 59 87 75 be
       -0.35579994 0.2615421 -0.0714387 -0.23977412
000080 a0 e8 58 3e 34 26 dc bb 0e 93 a9 be 6e 71 42 3e
       0.2118249 -0.0067184214 -0.33120006 0.18988582
000090 e9 bf 9e 3e f6 5f 7d 3d 2b 2a 80 be d7 2f 05 bd
       0.3100579 0.061859094 -0.25032172 -0.032516327
0000a0 e6 10 5b be 94 68 11 3e 7f 2d 3e be fe b5 e1 3c
       -0.21393165 0.1420005 -0.18572043 0.027552601
0000b0 84 d8 1f 3e 5d fe 6e be 20 a4 30 3c 1a 7a d1 bd
       0.15609938 -0.2333922 0.010781318 -0.10228367
0000c0 ba e5 a1 bd 05 6e d4 3d 24 3a 7d be 50 60 87 be
       -0.07905145 0.10372547 -0.2472921 -0.26440668
0000d0 9e f9 ad 3a 49 9c 0d 3e f6 fb 91 3e 82 0c 13 bd
       0.0013273244 0.1382915 0.28512543 -0.0359006
0000e0 c3 ad 86 be c7 58 37 3c 10 1f 39 bf b6 e2 2f 3f
       -0.26304445 0.0111906 -0.7231302 0.6870531
0000f0 68 8b 22 3c 3c 9c 45 bd bd 9c ac 3d f9 10 5e be
       0.009920932 -0.0482447 0.08428333 -0.21686162
000100 aa ed be bd ee 7f 14 be d6 b3 b2 be 23 9c 17 bd
       -0.093226746 -0.14501926 -0.3490283 -0.037014138
000110 85 c6 98 3e 23 16 6e be 16 f0 b3 bd 16 0e 6f 3e
       0.29838958 -0.23250632 -0.08786027 0.23345217
000120 18 e6 fa bd e6 95 5e be 44 d4 0d be 25 8f 78 3d
       -0.12250918 -0.21736869 -0.13850504 0.06068339
000130 44 fe 08 3e 09 4b e2 3d 50 12 66 bc 78 69 a5 bd
       0.13378245 0.11049468 -0.014042452 -0.08076757
000140 7e 5e de bd f3 6e 95 be b4 23 92 3e 3e 05 18 be
       -0.10857867 -0.2918621 0.28542864 -0.1484575
000150 b6 75 0f 3d e8 29 f5 3d 6e 51 9d be 67 30 4e bd
       0.035024367 0.119708836 -0.30726188 -0.05033913
000160 31 ac 50 3f 42 45 c4 be b0 51 6b 3e fa e7 2c be
       0.81512743 -0.3833409 0.2298038 -0.16885367
000170 c9 e8 0f bf c4 4b 8e bd b4 8d fa be fa 4a 0a 3f
       -0.56214577 -0.06948045 -0.48936236 0.54020655

sequential_2/conv1d_7/Conv1D f4 [64, 1, 3, 32]
000000 7d ee 04 3e dc 20 4a bd 70 ed c7 bd ac e0 91 3d
       0.12981601 -0.049347743 -0.097620845 0.07122931
000010 20 51 1b 3e a7 e6 2a bd 36 1b 8a be e5 3d 83 bd
       0.15167665 -0.041723873 -0.26973885 -0.0640829
000020 61 56 e6 bd 06 73 9f 3d c1 d7 a3 bc 39 bd 3d 3e
       -0.11246944 0.07785611 -0.02000034 0.18529214
000030 39 23 00 bd 43 42 4d 3e ac ec dd 3b 80 a2 64 3c
       -0.03128359 0.20044808 0.0067725983 0.013954759
000040 fb 17 16 3e b8 90 4a 3e 56 1c 42 be 61 b4 74 bd
       0.14657585 0.19781768 -0.18956122 -0.059742335
000050 1f ed 0b be d4 ee e5 3d 59 4b d0 3e c6 35 d7 3d
       -0.13664673 0.112271935 0.40682486 0.10508303
000060 d0 a4 9b bc a9 8e cb 3b 36 12 89 3d ce a1 e9 bb
       -0.018999487 0.006212075 0.066929266 -0.0071298843
000070 68 8f 58 3d 50 c9 c0 bd d8 03 94 be bc 3e 68 3d
       0.052871138 -0.09413397 -0.28909183 0.056700453
000080 d3 89 68 3e 1e f1 b1 bc 04 4b c6 3c 70 b5 04 bc
       0.22708826 -0.021721419 0.024205692 -0.008099899
000090 db 0d 91 3e b8 06 e7 bd ec 7d b1 bc 2b ab e4 3d
       0.28330883 -0.112805784 -0.02166649 0.1116546
0000a0 9d 04 44 bd 49 69 70 3d 44 d5 ea 3d ba 21 24 3e
       -0.047855962 0.058694158 0.114664584 0.1602849
0000b0 4e ca f0 3a 8f 24 1d bd b2 44 e8 3d 4c fd 1f bd
       0.0018370838 -0.038364943 0.113412276 -0.039059922
0000c0 52 99 4e 3d 21 17 55 3e c1 fc 46 bd 49 8d 4f bd
       0.050439186 0.20809604 -0.04858089 -0.05067185
0000d0 eb f7 1b be 40 74 bc 3d 06 1d a2 3e 32 b3 ab 39
       -0.15231292 0.092018604 0.31662768 0.00032749173
0000e0 b0 93 49 bc e3 61 a4 bd a4 2b aa bd ff a5 f8 3d
       -0.012303278 -0.08026483 -0.08309105 0.12141036
0000f0 3c a4 55 3d b5 bc 0a bd d4 7b 0e bf 27 02 f8 3c
       0.05215858 -0.03387137 -0.55657697 0.030274464
000100 1e b1 87 3e c6 c3 95 bd e2 4c 47 3d 70 c7 eb bc
       0.26502317 -0.073127314 0.048657306 -0.028781623
000110 0e 43 6b 3e 69 4e c8 3d 14 df d8 bc c8 d0 0f 3e
       0.22974798 0.097805806 -0.02647356 0.14044487
000120 7e 2f 14 be 7f 6b e6 bd 96 06 89 3c c0 f9 0e 3e
       -0.14471242 -0.11250972 0.016726773 0.1396246
000130 26 80 3d be d5 7c b3 3c a9 fc 80 3d 70 eb 08 3d
       -0.18505916 0.02191011 0.06298191 0.033427656
000140 ae 75 5d 3e 93 41 87 3e d6 5f 02 be 6c 03 23 be
       0.21626922 0.26417217 -0.12731871 -0.15919274
000150 e1 63 ad 3d f4 a8 bb bd 63 15 da 3e 2e ee 36 3e
       0.08466316 -0.091630846 0.42594442 0.17864296
000160 c6 c2 02 3e c7 06 3d bd f5 d4 b7 bd 1c dd cc 3d
       0.12769613 -0.04614904 -0.08976165 0.10003111
000170 fc e9 c7 3d a5 bc 0b 3d 08 72 fa be 6a b4 a7 3d
       0.09761426 0.034115452 -0.48915124 0.08188708
000180 3f e8 15 3d e9 ec a2 3d 72 f5 3f 3e 8c 4f 9a 3d
       0.03659844 0.07955343 0.18745974 0.075347036
000190 e8 8e 3b be 40 00 8d 3e b3 29 e6 3d 9c 21 88 bc
       -0.18316233 0.27539253 0.11238422 -0.016617589
0001a0 c3 c4 51 be cb 70 85 be f4 0c 72 be 3c 90 6f be
       -0.20485215 -0.26062617 -0.23637754 -0.23394865
0001b0 f0 ef e8 3d 06 fb 09 be c9 76 92 bc 0e 31 b2 bd
       0.113738894 -0.13474664 -0.017878907 -0.08700763
0001c0 bc d7 cb 3e 96 a1 fc bd b2 16 b4 be 0f 40 d7 3c
       0.3981303 -0.123355076 -0.35173565 0.026275663
0001d0 e4 21 e0 3c 18 a8 cf 3c ed d7 b4 3d bd 90 2e be
       0.02735991 0.025348708 0.08830247 -0.17047401
0001e0 78 45 58 bd 76 ee 30 be 18 47 f5 bc 28 b0 91 3e
       -0.052800626 -0.17278466 -0.029941127 0.2845471
0001f0 f6 45 93 3e 39 1f 0e 3e e3 7a df be ef 81 47 bd
       0.28764313 0.13879098 -0.43648443 -0.0487079
000200 3f a2 80 be 1e ec 6c 3d 5a a1 73 3e 88 ed 95 bc
       -0.25123784 0.057842366 0.2379202 -0.01830174
000210 4f 03 7e be c0 a7 a9 3d b2 f6 48 bd 61 1e 5f be
       -0.2480595 0.08283949 -0.049063392 -0.21788932
000220 7e 84 a4 3c 6a 4e 65 be ad 62 15 be f8 58 f5 bd
       0.020082708 -0.22393194 -0.14588423 -0.1197986
000230 ac b0 00 3e 96 35 4d bd f8 de 2e be 47 79 95 bd
       0.12567395 -0.05009993 -0.17077243 -0.072985224
000240 06 6a 1a 3d f5 f5 d6 be e1 80 2d 3e c5 48 b5 3d
       0.037698768 -0.41984525 0.16943695 0.0885177
000250 3b 79 5c bd 68 64 1b bd 87 8d f9 bd b1 01 38 bd
       -0.053826552 -0.03793755 -0.12185197 -0.044923488
000260 6e 2c 3f bd dd f3 9e bc 50 e2 f7 3d 77 02 bd 3d
       -0.04667323 -0.019403392 0.121037126 0.09228986
000270 47 8d bc 3d 6e 4d 89 bc d0 4c 27 3e 5a 03 a1 be
       0.09206634 -0.016760554 0.16337895 -0.3144787
000280 72 3d 29 3e f5 4b 07 be 8e ae f6 be 6e e4 df bd
       0.16527346 -0.13212569 -0.4818005 -0.109322414
000290 f8 07 d1 3e 2d e3 f3 be c2 46 c9 be f3 55 eb bc
       0.40826392 -0.4763426 -0.39311796 -0.028727507
0002a0 38 34 c8 3e be 8f ba 3e 99 c9 a0 3e 9b 21 63 3e
       0.3910234 0.36437792 0.31403807 0.22180788
0002b0 43 3f 83 bd e1 35 ad 3e 15 9a ed bc b0 35 82 bc
       -0.064085506 0.3383017 -0.029004136 -0.01589474
0002c0 34 67 ea be ba bd 88 3e 64 8e c1 be a7 90 d2 3e
       -0.45781863 0.2670725 -0.37803948 0.41125986
0002d0 e9 e8 8b bd 34 13 ff 3d 53 4e 5c 3e 9f b1 a3 3e
       -0.068315335 0.124548346 0.21514253 0.31971452
0002e0 40 58 a2 bb 26 f2 8a bb e0 8d e8 3d 5e d1 17 be
       -0.004954368 -0.004240292 0.113551855 -0.14825961
0002f0 e8 d9 13 bf 4d 8c a1 be 22 0b 75 bf f3 ca b6 3e
       -0.57754374 -0.31552354 -0.9572011 0.35701713
000300 d0 34 e5 3d 47 b2 9c 3d 50 b6 a8 3d ac d4 f0 bd
       0.11191714 0.07651191 0.08237898 -0.11759314
000310 c5 a8 cf 3e dc 2d 8f bb dc aa 89 bd 25 ca a5 3d
       0.40558448 -0.0043694805 -0.06722042 0.08095197
000320 7e eb 00 bd aa fb 4d 3d b1 a1 9f bd 31 df 78 3d
       -0.031474583 0.050288834 -0.07794512 0.060759727
000330 c2 f9 38 be da cc b2 3c 05 5b 0d bd 00 5c bc bb
       -0.18064025 0.021826196 -0.03451063 -0.005748272
000340 33 94 d4 3d 2a 8b 50 3e 52 25 a5 bd 51 3c e0 3d
       0.10379829 0.20365587 -0.08063759 0.109490044
000350 4e ae 21 3d e8 60 01 3e 61 4a 00 3f b2 c7 24 3e
       0.03947287 0.12634623 0.50113493 0.16091803
000360 a2 ac bb 3d b3 86 bf 3b d4 ce 10 bd 8e ac 24 3e
       0.091637865 0.005844915 -0.035353497 0.1608145
000370 ac f3 02 bd ec e0 b8 bd 97 be f4 be 8e 45 5e 3d
       -0.031970665 -0.090272754 -0.4780166 0.05426555
000380 c8 8f 31 3e 41 7f 63 3d 4f 02 9a bd a1 3c d4 bd
       0.17340004 0.05554128 -0.075199716 -0.103631265
000390 16 ef be 3d 5e 7b 20 be 03 57 c7 bd d7 4b 3a 3e
       0.09322946 -0.15672061 -0.09733393 0.18192993
0003a0 85 2f a1 3d 4e 75 92 3d b5 af 12 3e ab 3e 81 3e
       0.07870392 0.0715128 0.1432484 0.25243124
0003b0 5f 31 46 be 7a 86 5b 3e 5a 93 9e bd 00 44 b3 b9
       -0.19354771 0.21438017 -0.07742949 -0.00034192204
0003c0 2c 6e 3d bd 62 8f b7 3d 25 3b b6 3c d9 7c f2 bc
       -0.046247646 0.08962895 0.022245 -0.029600548
0003d0 c8 bd 3b bd 15 d3 8a bd 1d 4d 8b 3e 57 a8 13 3d
       -0.045835286 -0.06778542 0.2720727 0.036049213
0003e0 63 91 01 be 2e 37 b2 bb 08 f9 fb 3c 97 ce a7 bd
       -0.12653117 -0.005438707 0.030758396 -0.08193701
0003f0 bc 06 12 be ab 6a 9d bd 27 74 fc be 68 39 87 3e
       -0.14260381 -0.07686361 -0.49307367 0.26410985

sequential_2/conv1d_8/Conv1D f4 [32, 1, 3, 64]
000000 58 a5 42 3e da 77 55 3f bc 0a 65 3d cf dd 99 3c
       0.19008386 0.83386004 0.05591844 0.018782524
000010 a4 a0 4b 3e 0c 05 4b 3e 18 8b a7 3d b3 26 80 bd
       0.19885498 0.19826144 0.08180827 -0.06257381
000020 b7 47 af 3d 9b 48 9f 3d 7a b2 f8 bc 27 fc 00 3d
       0.085586004 0.0777752 -0.030358542 0.03149047
000030 ee 00 3c bd 37 1b 3b 3d f5 e6 f1 3d 7a 82 4c 3e
       -0.045899324 0.04568025 0.1181163 0.19971648
000040 c3 9d 56 3e aa 58 46 3d 25 0b e0 bb c7 c9 57 bd
       0.20958619 0.0484244 -0.006837266 -0.052682664
000050 01 f6 6a bd 92 fd e5 bd 62 38 c7 3d f6 c6 67 3e
       -0.057363514 -0.11230005 0.09727551 0.22634491
000060 01 98 97 bd 3f 18 21 bc 6e 58 10 3e 2b 86 0f 3e
       -0.07402039 -0.009832441 0.14096233 0.14016025
000070 44 bd 48 bd 7e 47 c0 3d 0b 0a 37 bd 21 43 ff 3c
       -0.049008623 0.09388636 -0.044687312 0.03115994
000080 84 b8 3e 3e d6 7d 0a 3e b8 36 4b 3d b9 b8 26 3e
       0.18625075 0.13524565 0.04961273 0.16281404
000090 59 71 54 3e 2e da 3c 40 dc 34 35 bd f6 90 0a bd
       0.20746364 2.9508166 -0.044239864 -0.03382965
0000a0 3f d2 62 3e d3 d9 32 bb e3 96 6c 3d f7 8e 8b 3d
       0.22150515 -0.0027290478 0.057761084 0.06814378
0000b0 0a c6 95 3c 37 70 cc bd 5c e2 5a 3e 72 97 c8 bb
       0.018282909 -0.09982341 0.21375412 -0.0061215693
0000c0 05 b8 cf 3c 4d 76 b2 bd 9f 9c f9 bc d3 70 a1 bb
       0.025356302 -0.0871397 -0.03047019 -0.00492678
0000d0 d6 40 b8 bc a7 d4 05 3d f9 0d ce bc 8b 80 5d 3e
       -0.022491854 0.032673504 -0.025153147 0.21631067
0000e0 a2 14 ac 3d b5 2d 57 3e 24 1b 1e bd 26 8c 21 bd
       0.08402373 0.2101353 -0.038600102 -0.039440297
0000f0 7a 86 8a bd 65 63 06 3c 6f b8 53 3d f8 3c 59 3e
       -0.067639306 0.008202408 0.05168956 0.21214664
000100 6f 51 94 bd 18 c0 5b 3f b3 e5 7c 3c 08 7e 0b 3e
       -0.07242095 0.85839987 0.015435624 0.13622296
000110 a4 00 24 3d 5d 11 c4 3d f3 b6 00 3c 9b 03 0a 3e
       0.040039673 0.09573624 0.0078561185 0.13477938
000120 76 ae e2 bd 72 73 32 3e cd b6 cc bc d5 57 26 3e
       -0.11068432 0.17426851 -0.02498951 0.16244443
000130 8a 5e 81 3d 3c 35 a5 bd 64 f6 e2 3b 0d 52 89 3b
       0.0631686 -0.08066794 0.0069263447 0.0041906894
000140 d5 d5 14 3d 50 71 dd bc bd 13 77 3e da 78 a3 3d
       0.03633674 -0.02703157 0.24128623 0.07982035
000150 75 3a 21 3e 11 aa 66 bd e6 ae 18 3e e6 77 19 3e
       0.15744956 -0.05631453 0.14910468 0.14987144
000160 29 08 9e bd 23 5c e1 bc 4a 9d 17 3e 4d 45 a2 3d
       -0.077164 -0.027509755 0.14806095 0.07923374
000170 ff e1 8d bd b4 cc 3b 3e 28 35 4e 3e 08 c6 a8 bd
       -0.06927871 0.18339807 0.20137465 -0.082408965
000180 5a 17 81 3b d7 a9 2a 3c c1 0d cd 3d ac e4 b1 3d
       0.0039395513 0.01041647 0.10012389 0.08686194
000190 20 ce 3c bd 58 08 45 40 0a 72 23 bd 64 aa bf 3d
       -0.046095014 3.0786343 -0.039903678 0.09358671
0001a0 8f 7a 07 3e 3c 39 a0 bd 8b 98 02 3e da aa 94 3d
       0.13230346 -0.078234166 0.12753503 0.0725915
0001b0 d8 a7 f2 bd ff 15 2c 3c 67 b2 5c 3e b2 4e f1 3c
       -0.1184842 0.010503291 0.2155243 0.02945647
0001c0 30 e0 3f 3e 53 0a d5 bd 9e 7d 70 3a 70 d7 00 3c
       0.18737864 -0.1040236 0.0009173992 0.007863864
0001d0 ae b1 a6 bc 6f ac 74 3e 70 46 42 3d f3 c4 a0 bd
       -0.020348396 0.23893903 0.047430456 -0.07850065
0001e0 b4 05 df 3d 8f e9 12 bc 89 c1 32 bd f4 63 ec bc
       0.1088976 -0.0089668175 -0.0436416 -0.028856255
0001f0 34 06 24 bd b7 d0 e5 3d 07 a9 c9 3c 64 49 3c 3e
       -0.04004498 0.1122145 0.024616731 0.18387371
000200 f7 a8 27 3c f6 9d 5e 3f 80 15 15 3e a6 3c df 3d
       0.010233155 0.8695978 0.14558983 0.1090024
000210 d2 63 1a 3e 07 43 02 3e 7f 0b 69 bd 45 dd 1d 3d
       0.15077141 0.12720881 -0.05689573 0.038541097
000220 91 a8 99 bd a4 14 3d 3e 3d 03 53 bd c2 b2 18 3e
       -0.075028546 0.18464905 -0.05151676 0.1491194
000230 4f e5 d1 bd 09 54 51 bd 9c e3 86 3e 2a 82 63 bd
       -0.10248815 -0.051105533 0.26345527 -0.055544056
000240 07 f6 2f 3e bc ff ae 3d 4d c0 8a bc 97 8f 00 3e
       0.17183696 0.08544871 -0.0169374 0.12554775
000250 78 44 6f bd 79 be 77 bd f5 7e 92 bd 70 23 46 3d
       -0.058414906 -0.060484383 -0.071531214 0.04837364
000260 aa 0f 9c bd f8 8d 0c 3e 2a 98 9a 3d 26 97 22 3e
       -0.07620175 0.13726032 0.07548554 0.15877971
000270 5b 9f 9a 3d b8 53 05 3e 65 26 0b 3e 4e 15 f9 3d
       0.07549926 0.13020217 0.13588865 0.12162267
000280 5a ce e2 bc de a2 59 3d d0 eb ef 3d 69 fb e4 bc
       -0.027686287 0.053133838 0.117148995 -0.027951913
000290 30 5d 8c 3d 72 cc 41 40 28 2d e5 3d 1f 1e 70 3d
       0.068537116 3.0281034 0.111902535 0.058622476
0002a0 b5 25 a5 bc 6f 19 5a 3d 58 b3 55 3e cf cc 1c 3c
       -0.020159582 0.05324691 0.20869195 0.009570315
0002b0 46 00 00 3c 85 e1 d7 3c ad 75 1c 3d ce 50 51 3e
       0.007812565 0.026352653 0.038198162 0.20440981
0002c0 2a 75 16 bd fc 18 c7 bd 39 07 bc bd 4a 9c 41 3c
       -0.03673283 -0.09721562 -0.09181065 0.011817047
0002d0 49 dd 43 3d c8 a7 8e 3d 55 09 df bd 33 8b 9c bc
       0.047818456 0.069655955 -0.10890452 -0.019109344
0002e0 65 e2 c0 3d 5e cb 8f 3d cf 82 ca 3c 1c 7d 31 3d
       0.09418181 0.07021211 0.024720578 0.043332204
0002f0 98 e2 14 3d 53 b3 36 bd 25 af 82 3e a0 4a d8 bc
       0.03634891 -0.04460461 0.2552425 -0.026402771
000300 ae 99 7a 3c 00 18 7d bb f9 27 bb bd 4c 33 e4 bd
       0.015295429 -0.0038619041 -0.091384836 -0.111425966
000310 4f 51 3c 3d b2 d0 59 bd 62 00 2b be 0b 01 3f bd
       0.04597598 -0.053177543 -0.16699365 -0.046631854
000320 76 55 df bd 2c ca 6e 3b ef d3 e2 bd cf 7f c7 3c
       -0.10904972 0.0036436422 -0.110755794 0.024352936
000330 72 97 19 3c 97 9f 4f 3d 10 37 64 3c ac 2b 50 3d
       0.009374486 0.050689306 0.013929144 0.0508229
000340 60 6f 68 bd e8 81 b3 3c a8 95 03 3d f0 81 ba bd
       -0.05674684 0.02191253 0.032125145 -0.09106815
000350 e0 21 91 3b 74 33 c4 bc de 6b 71 bd fa ca 41 bd
       0.004429087 -0.023950316 -0.05894076 -0.047312714
000360 50 5d 3f bc 52 fc 20 3d cc c8 9f bd 8b 34 03 be
       -0.011679962 0.03930313 -0.07801971 -0.12813012
000370 8e 6f be bd ba 66 10 be 7a fc 95 bd 83 2c 31 be
       -0.09298621 -0.14101687 -0.07323547 -0.17302136
000380 51 32 ac 3d e4 df c1 bd 0a d5 9b bd 90 ba ba bd
       0.084080346 -0.09466532 -0.07608993 -0.09117615
000390 56 13 23 bd e3 ef e4 bd 9a 96 e5 bc ca dc 09 3e
       -0.039813362 -0.11178567 -0.028025914 0.1346313
0003a0 76 a5 2b be 30 92 51 3d 17 d3 9a bd 90 59 56 3d
       -0.16762337 0.051164806 -0.075597934 0.052331507
0003b0 a3 11 4b 3d df 97 8e 3d c7 b1 bb bd f8 73 f4 bd
       0.049577367 0.06962561 -0.09164768 -0.11936182
0003c0 75 75 2e be fc 1e 3a bd 49 1b b6 3d d5 7a 0f bd
       -0.17036994 -0.045439705 0.08891923 -0.03502925
0003d0 06 5c f6 bc 1a c1 a9 3d 4d 45 0d 3e d8 98 91 bd
       -0.030073177 0.08288784 0.13795967 -0.07109231
0003e0 fd f5 82 bd 06 75 52 3d 0b 1d 03 be 90 aa 42 bc
       -0.06394575 0.051381133 -0.12804048 -0.011881486
0003f0 fb f1 af bd 47 51 52 bd 5d a4 b3 bb bb f0 a5 3d
       -0.08591076 -0.051347043 -0.00548224 0.08102556
